32_tingml_gesture_thingsboard/external_modules/gesture/model.tflite (tflite, 41664 bytes, 2 tensors)

sequential_1/dense_2/MatMul i1 [128, 300] scale=0.0015077424 zero_point=0
000000 01 1e 1e e4 f7 b5 b6 eb e7 d4 c8 d7 da be d6 2a
       0.0015077424 0.045232274 0.045232274 -0.04221679 -0.013569682 -0.11308068 -0.11157294 -0.03166259 -0.03769356 -0.06634067 -0.08443358 -0.06181744 -0.057294212 -0.099511005 -0.06332518 0.06332518
000010 3a 3f 23 e3 b9 e3 eb d9 b4 26 12 e7 c2 49 37 42
       0.08744906 0.09498777 0.052770987 -0.04372453 -0.10704971 -0.04372453 -0.03166259 -0.058801956 -0.114588425 0.057294212 0.027139364 -0.03769356 -0.09348003 0.1100652 0.082925834 0.099511005
000020 3b ca d7 d4 0a 38 b7 04 c3 ed c6 13 cf 28 c2 37
       0.0889568 -0.08141809 -0.06181744 -0.06634067 0.015077424 0.08443358 -0.1100652 0.00603097 -0.09197229 -0.028647106 -0.08744906 0.028647106 -0.07387938 0.060309697 -0.09348003 0.082925834
000030 38 fa 3c 0b 23 bd d4 28 ff d1 2b b8 e6 3e cb 09
       0.08443358 -0.009046455 0.09046455 0.016585167 0.052770987 -0.10101874 -0.06634067 0.060309697 -0.0015077424 -0.070863895 0.064832926 -0.108557455 -0.039201304 0.09348003 -0.07991035 0.013569682
000040 cc f8 9d d2 35 16 d9 0e 2c 0e 11 34 c4 28 4d 37
       -0.07840261 -0.01206194 -0.1492665 -0.06935615 0.07991035 0.033170335 -0.058801956 0.021108394 0.06634067 0.021108394 0.025631621 0.07840261 -0.09046455 0.060309697 0.11609617 0.082925834
000050 f4 48 c7 b5 cc f6 ba 00 b9 50 1b ee 2c 2c ee bd
       -0.01809291 0.108557455 -0.08594132 -0.11308068 -0.07840261 -0.015077424 -0.105541974 0.0 -0.10704971 0.120619394 0.040709045 -0.027139364 0.06634067 0.06634067 -0.027139364 -0.10101874
000060 b9 b4 37 f7 2b 3a 28 dd 05 24 13 c2 33 b5 ab 31
       -0.10704971 -0.114588425 0.082925834 -0.013569682 0.064832926 0.08744906 0.060309697 -0.052770987 0.007538712 0.054278728 0.028647106 -0.09348003 0.076894864 -0.11308068 -0.1281581 0.07387938
000070 37 fd 29 3f ec 0a e1 2e 18 cc b5 c5 b8 4f 20 2b
       0.082925834 -0.0045232275 0.06181744 0.09498777 -0.030154848 0.015077424 -0.046740014 0.06935615 0.03618582 -0.07840261 -0.11308068 -0.0889568 -0.108557455 0.11911165 0.04824776 0.064832926
000080 42 06 32 21 34 e9 fd 34 e7 e0 10 34 d3 ee f2 d8
       0.099511005 0.009046455 0.07538712 0.049755502 0.07840261 -0.034678075 -0.0045232275 0.07840261 -0.03769356 -0.04824776 0.02412388 0.07840261 -0.06784841 -0.027139364 -0.021108394 -0.060309697
000090 e5 37 17 d1 f1 b5 29 49 c3 f3 cb 11 e6 3d 27 08
       -0.040709045 0.082925834 0.034678075 -0.070863895 -0.022616137 -0.11308068 0.06181744 0.1100652 -0.09197229 -0.019600652 -0.07991035 0.025631621 -0.039201304 0.09197229 0.058801956 0.01206194
0000a0 d0 1f 2d 0c b6 1c 03 17 14 e9 dd e1 2a 31 09 b7
       -0.07237164 0.046740014 0.06784841 0.01809291 -0.11157294 0.04221679 0.0045232275 0.034678075 0.030154848 -0.034678075 -0.052770987 -0.046740014 0.06332518 0.07387938 0.013569682 -0.1100652
0000b0 43 c2 b8 de 3e ff 4b da 48 15 1a 22 23 c4 d6 fc
       0.10101874 -0.09348003 -0.108557455 -0.051263243 0.09348003 -0.0015077424 0.11308068 -0.057294212 0.108557455 0.03166259 0.039201304 0.051263243 0.052770987 -0.09046455 -0.06332518 -0.00603097
0000c0 40 44 4f ec bf 32 ef 3e 42 c8 d6 03 3c c8 03 0c
       0.09649552 0.102526486 0.11911165 -0.030154848 -0.09800326 0.07538712 -0.025631621 0.09348003 0.099511005 -0.08443358 -0.06332518 0.0045232275 0.09046455 -0.08443358 0.0045232275 0.01809291
0000d0 3e c4 ba f0 32 f1 08 0f 0b f1 3b 0c c7 e2 31 2d
       0.09348003 -0.09046455 -0.105541974 -0.02412388 0.07538712 -0.022616137 0.01206194 0.022616137 0.016585167 -0.022616137 0.0889568 0.01809291 -0.08594132 -0.045232274 0.07387938 0.06784841
0000e0 3a ed c7 e7 c8 45 42 25 ce d6 c3 e8 35 d4 33 02
       0.08744906 -0.028647106 -0.08594132 -0.03769356 -0.08443358 0.10403423 0.099511005 0.05578647 -0.07538712 -0.06332518 -0.09197229 -0.03618582 0.07991035 -0.06634067 0.076894864 0.003015485
0000f0 e3 cc da 11 c9 06 ff f9 ba f6 24 f5 bb d6 d6 4b
       -0.04372453 -0.07840261 -0.057294212 0.025631621 -0.082925834 0.009046455 -0.0015077424 -0.010554197 -0.105541974 -0.015077424 0.054278728 -0.016585167 -0.10403423 -0.06332518 -0.06332518 0.11308068

sequential_1/dense_3/MatMul i1 [4, 128] scale=0.0025165558 zero_point=0
000000 c9 2c 29 9a a2 1a ab 0a 40 8b a6 fb 16 0f e5 c3
       -0.13841057 0.11072846 0.10317879 -0.25668868 -0.23655625 0.065430455 -0.21390724 0.025165558 0.16105957 -0.29443702 -0.22649002 -0.012582779 0.05536423 0.037748337 -0.06794701 -0.1535099
000010 46 f3 3d 27 30 a6 08 cc 14 b0 4d 4f 35 0b 9d e0
       0.1761589 -0.032715227 0.1535099 0.09814568 0.12079468 -0.22649002 0.020132447 -0.13086091 0.050331116 -0.20132446 0.1937748 0.19880791 0.13337746 0.027682114 -0.24913903 -0.08052979
000020 fd e9 ba 0c e7 b2 d0 0d f1 be c0 d2 d5 ae ca 23
       -0.0075496677 -0.057880785 -0.1761589 0.03019867 -0.062913895 -0.19629136 -0.12079468 0.032715227 -0.037748337 -0.16609268 -0.16105957 -0.11576157 -0.1082119 -0.20635758 -0.13589402 0.08807945
000030 14 b3 2c eb fb 14 eb 20 f4 37 c1 bb 13 1f c9 10
       0.050331116 -0.1937748 0.11072846 -0.052847672 -0.012582779 0.050331116 -0.052847672 0.08052979 -0.03019867 0.13841057 -0.15854302 -0.17364235 0.04781456 0.078013234 -0.13841057 0.040264893
000040 0f f0 f9 3d df 11 f2 d4 26 12 92 45 ff db 0f 0c
       0.037748337 -0.040264893 -0.01761589 0.1535099 -0.08304634 0.04278145 -0.03523178 -0.11072846 0.09562912 0.045298006 -0.27682114 0.17364235 -0.0025165558 -0.093112566 0.037748337 0.03019867
000050 f0 c2 1e a9 25 fe c4 c1 21 cc 24 c1 f8 a6 40 31
       -0.040264893 -0.15602647 0.07549667 -0.21894036 0.093112566 -0.0050331117 -0.15099335 -0.15854302 0.08304634 -0.13086091 0.09059601 -0.15854302 -0.020132447 -0.22649002 0.16105957 0.12331124
000060 e1 aa ec e7 43 c4 b5 c7 f2 f3 4f f9 eb 1a e9 f9
       -0.078013234 -0.2164238 -0.050331116 -0.062913895 0.16860925 -0.15099335 -0.18874168 -0.14344369 -0.03523178 -0.032715227 0.19880791 -0.01761589 -0.052847672 0.065430455 -0.057880785 -0.01761589
000070 ca 0a 9f 26 b0 15 aa f9 e4 ad 43 ea 81 a7 9a ca
       -0.13589402 0.025165558 -0.24410592 0.09562912 -0.20132446 0.052847672 -0.2164238 -0.01761589 -0.07046356 -0.20887414 0.16860925 -0.05536423 -0.31960258 -0.22397347 -0.25668868 -0.13589402
000080 da cf 1e be ed 09 06 43 b9 4b 40 bb a9 ee c7 ff
       -0.09562912 -0.12331124 0.07549667 -0.16609268 -0.04781456 0.022649003 0.015099335 0.16860925 -0.17867546 0.18874168 0.16105957 -0.17364235 -0.21894036 -0.045298006 -0.14344369 -0.0025165558
000090 d2 23 b1 f3 03 05 e8 df 36 f6 2c 50 09 07 c2 21
       -0.11576157 0.08807945 -0.19880791 -0.032715227 0.0075496677 0.012582779 -0.06039734 -0.08304634 0.13589402 -0.025165558 0.11072846 0.20132446 0.022649003 0.01761589 -0.15602647 0.08304634
0000a0 44 ef 47 e0 e2 b7 d3 20 2f fd c4 f9 3a 15 30 46
       0.1711258 -0.04278145 0.17867546 -0.08052979 -0.07549667 -0.18370858 -0.11324501 0.08052979 0.11827812 -0.0075496677 -0.15099335 -0.01761589 0.14596024 0.052847672 0.12079468 0.1761589
0000b0 4c d2 2b cf f0 dc 18 49 23 3e 3b 43 46 fc 3c 14
       0.19125824 -0.11576157 0.1082119 -0.12331124 -0.040264893 -0.09059601 0.06039734 0.18370858 0.08807945 0.15602647 0.1484768 0.16860925 0.1761589 -0.010066223 0.15099335 0.050331116
0000c0 fe f4 ab 41 36 c0 da a8 f6 cf 0d 2e bc da ea bf
       -0.0050331117 -0.03019867 -0.21390724 0.16357613 0.13589402 -0.16105957 -0.09562912 -0.22145692 -0.025165558 -0.12331124 0.032715227 0.11576157 -0.1711258 -0.09562912 -0.05536423 -0.16357613
0000d0 d2 48 1b 0c f5 bb 3f 1d 0e 38 04 d0 d7 fe 1e 0d
       -0.11576157 0.18119203 0.06794701 0.03019867 -0.027682114 -0.17364235 0.15854302 0.07298012 0.03523178 0.14092712 0.010066223 -0.12079468 -0.10317879 -0.0050331117 0.07549667 0.032715227
0000e0 14 0e ef 4c f8 47 e4 05 33 2d 35 c8 b2 35 ac 0a
       0.050331116 0.03523178 -0.04278145 0.19125824 -0.020132447 0.17867546 -0.07046356 0.012582779 0.12834434 0.11324501 0.13337746 -0.14092712 -0.19629136 0.13337746 -0.21139069 0.025165558
0000f0 0b 50 fe b2 ab e0 11 ee 33 35 ae f2 02 38 01 28
       0.027682114 0.20132446 -0.0050331117 -0.19629136 -0.21390724 -0.08052979 0.04278145 -0.045298006 0.12834434 0.13337746 -0.20635758 -0.03523178 0.0050331117 0.14092712 0.0025165558 0.10066223
