12_tingml_gesture_predict/external_modules/gesture/model_basic.tflite (tflite, 5576 bytes, 8 tensors)

sequential/conv1d/BiasAdd/ReadVariableOp f4 [8]
00000000: 991c dcbe 0083 2fbf 23a4 683e b969 a03e
00000010: 56e5 e53e e451 e5bd cfe7 f4bd d71c debb
-0.42990568 -0.68559265 0.22718863 0.3133066 0.44901532 -0.1119726 -0.119582765 -0.0067783403

sequential/conv1d_1/BiasAdd/ReadVariableOp f4 [8]
00000000: 8ab0 903e 2d9c 65bc e13e 0c3f a38c 51bf
00000010: 23c8 d53e ec3c 823e bbc9 dfbe e14e eebd
0.2825969 -0.014014286 0.54783446 -0.8185522 0.41754255 0.25437105 -0.43708596 -0.11636139

sequential/conv1d/Conv1D f4 [8, 1, 3, 1]
00000000: c088 9cbf 5e38 003d 2ca0 5c3d 5175 c73e
00000010: feed 05bf f514 9dbe 52e3 5fbc c4d3 253f
00000020: ce22 033f acd3 293f fe20 c639 4504 183f
00000030: 0bb2 1cbf 149d 903e dc8a 84be 4c87 6d3d
00000040: bb77 c4be 92fb b0bf 8922 023f 9ee0 f33e
00000050: 0647 963e 9711 4fbf 4b8b 98be da0f e23e
-1.2229233 0.031303756 0.05386369 0.38956693 -0.5231627 -0.3068005 -0.013665037 0.64776254
0.5122498 0.6633861 0.00037790084 0.59381515 -0.6120917 0.2824484 -0.2588719 0.057990357
-0.38372597 -1.3826773 0.50833946 0.47632307 0.29351062 -0.80886215 -0.29793772 0.4415272

sequential/conv1d_1/Conv1D f4 [8, 1, 3, 8]
00000000: 173d c5bd 6d10 ff3e d372 1dbe b720 4a3e
00000010: 9d9d 573e a3a0 9bbf 3d8b 8e3e bfc2 843e
00000020: 291b 39bf a8b2 b33b eff3 893e cf51 1abd
00000030: 4b78 debc 01fa a5bd 95b2 f33d df95 223d
00000040: fb5c 64bf 3488 913e 7bf5 643e 1267 2f3e
00000050: e150 a23e 28c1 a33e b562 1b3e dd59 ea3e
00000060: fbd9 fc3e 00f7 cabe df40 963e e0f0 1e3e
00000070: bbf9 023e f078 8cbe 64a8 083d 4bef abbd
00000080: f13e 9f3e d8cc 753e 524a c6bd 20bb e43d
00000090: 1f46 bdbe 198d b93e 4312 d93c 37fa 0cbf
000000a0: 8711 9e3e 13bd ddbd 2c1e bc3e 6013 b63e
000000b0: 47d0 91be 8626 b8be d671 bf3d 8c57 603e
000000c0: 47e5 e2be 7764 c5bf e4e5 5f3e 7d89 76be
000000d0: 6444 c9bf 2f95 89bf db7c 85be 80a3 993e
000000e0: 7230 a5bf d27b d7bd 824b 993e b4b3 d9bf
000000f0: f13b ac3e cf3a c7bf 8af2 0abe bf0a ebbe
00000100: e084 a4be d7f5 03bc 4c9a a03e a29c 3e3e
00000110: 6b9b 2d3e 91da a4be 875a 40be 97d3 353f
00000120: 691d 2fbf 75a7 cb3e 93f3 683e 5b24 00be
00000130: 90fc 5abe 4a20 c1bd b29a ab3e fadd 0dbd
00000140: 8590 213e 109b ea3e 7c4d 3e3d 37e8 683c
00000150: 3ae8 08be 8704 be3c 2c07 a83e ad13 913d
00000160: 85a3 323e a050 f23d d732 32be 4269 d03e
00000170: 9e91 85bc 87a3 0a3e 6356 1d3e 730f ae3e
00000180: 4927 a2be c4b6 71bd 3a19 993e 9935 ab3d
00000190: 20d4 94be b9e4 183c 6f0f e3bc e57b e6be
000001a0: ef86 1fbd 0bfd f7be 3fc9 843e dac4 32bd
000001b0: f042 49be 317b 863e faa5 b3bc 94d5 4c3e
000001c0: 37ac 1a3e 24e2 f5be 7f42 b83e 6de1 a4bd
000001d0: 3f51 9fbd b988 203e d689 683d f16d aa3c
000001e0: 5c18 b73d d73c 1e3e 8e17 0f3e 032f e4ba
000001f0: b19a 413d d1e9 d9be 2fde 65bd d339 4fbe
00000200: 95b5 803e 221c 063d 2482 48bc b42b 013e
00000210: c839 8c3e 8215 5abf dc13 debb cb62 cd3e
00000220: a9ce 38bf 908f 5cbe f733 84be 5a91 863e
00000230: 46b3 bf3d 5752 84bc 68eb 523e 49bf 79bd
00000240: d65f 90be 1adc 6cbf 3bee a83e dc8d 72be
00000250: 8eb1 07bc 8edd 8d3e 9116 aa3e ba3c e6be
00000260: ead7 903d 4fd4 2cbe 2017 a93e 6968 9a3e
00000270: 1c41 e6be ebd4 1dbe c0cf 053f 7547 34be
00000280: c7c1 013f db85 a13e 6254 4ebe 9f8d e7be
00000290: ced3 dc3d 1f92 47bf 769d b3bd 0a61 3abf
000002a0: f92f b7bd f290 88be 6217 d9bd a277 743e
000002b0: 1c0d f9bd fd3c 123f a1de 5e3e 2b39 1a3e
000002c0: 3d29 c13e 6428 3abc fea5 f23e 3b45 c93d
000002d0: c50f 833e 9a97 ac3e df0e 8abd 4d10 febc
000002e0: 6227 1b3f d60e e2bd 7c38 403e 0599 743e
000002f0: 3967 20be 3c36 123f 58f1 c43e e393 d63d
-0.096307926 0.4981722 -0.15375833 0.19739042 0.21056218 -1.2158397 0.27840605 0.2592983
-0.7230707 0.005483944 0.2694392 -0.037675675 -0.02715697 -0.08104325 0.11899296 0.03969371
-0.89204377 0.28424227 0.22359268 0.17129162 0.3170233 0.31983304 0.15174372 0.45771685
0.49385056 -0.3964157 0.29346368 0.15521574 0.12790577 -0.27436018 0.033363715 -0.08395251
0.31102708 0.24003923 -0.09682144 0.11168504 -0.3696756 0.3624046 0.026497966 -0.550693
0.30872747 -0.10827079 0.3674177 0.35561657 -0.28479216 -0.3596689 0.09347884 0.21908396
-0.4431555 -1.5421284 0.2186504 -0.24075885 -1.5723996 -1.0748652 -0.2607182 0.30007553
-1.2905409 -0.10521664 0.2994042 -1.7007966 0.33639482 -1.5564822 -0.13569084 -0.45906636
-0.32132626 -0.008054218 0.3136772 0.18614438 0.16953819 -0.32198003 -0.18784533 0.71025985
-0.6840425 0.39776197 0.22749166 -0.12513869 -0.21385407 -0.09429987 0.3351646 -0.03463552
0.15777786 0.45821428 0.046460614 0.014215521 -0.13369837 0.023195518 0.32817972 0.07083831
0.1744519 0.11831784 -0.17402206 0.40705305 -0.016304787 0.13538943 0.15364985 0.33996162
-0.31670597 -0.05901219 0.2990206 0.08359832 -0.2906809 0.0093318755 -0.02771732 -0.450164
-0.038947042 -0.48435244 0.2593479 -0.043644764 -0.19654441 0.26265863 -0.02192973 0.20003349
0.15104757 -0.48024094 0.35988232 -0.08050809 -0.07779168 0.15677156 0.056772076 0.020804377
0.08940193 0.15452896 0.13973829 -0.001740903 0.047266666 -0.425612 -0.056120094 -0.20236902
0.25138536 0.032741673 -0.012238059 0.12614328 0.27387834 -0.8518907 -0.0067772698 0.40114436
-0.7219034 -0.2153914 -0.25820896 0.2628277 0.093603656 -0.016152544 0.20597613 -0.06097344
-0.28198117 -0.9252335 0.32994255 -0.23686928 -0.008282078 0.27708095 0.33220342 -0.44968206
0.07072432 -0.16877864 0.33025455 0.30157784 -0.4497155 -0.15413253 0.52270126 -0.17605384
0.50686306 0.31547436 -0.20149377 -0.45225236 0.10782586 -0.7795734 -0.08770268 -0.7280432
-0.08944697 -0.26673084 -0.10600163 0.23873761 -0.121607035 0.5712431 0.21764614 0.1506087
0.37726775 -0.011362169 0.47392267 0.09827658 0.2559797 0.33709413 -0.06741118 -0.031013632
0.6060697 -0.11037986 0.18771547 0.23886497 -0.15664376 0.57114005 0.3846538 0.10477426

sequential/dense/BiasAdd/ReadVariableOp f4 [8]
00000000: 8090 433e 9feb 713f 6f13 23bf 1078 1dbe
00000010: 17f3 23bf 0000 0000 cc60 c1bd 7764 5b3f
0.19098091 0.94500154 -0.6370153 -0.15377831 -0.640428 0.0 -0.09442291 0.8570017

sequential/dense_1/BiasAdd/ReadVariableOp f4 [4]
00000000: d809 463f 95db 823f f001 b3bc 94d8 f6bf
0.7735877 1.0223261 -0.02185151 -1.9284844

sequential/dense/MatMul f4 [8, 8]
00000000: c022 9f3e 4937 42be 565b 8b3f d6b1 c53d
00000010: 3b1f a1be f1cb d13e 9d00 54bf def5 01be
00000020: 3d4c f8be c2c4 c43e b9fa 313e 5da4 29bf
00000030: 6870 453f c06c 6dbc d427 a83e 2ee5 983d
00000040: d8f0 723d 6fe0 ca3d 48da 5cbf 2d35 11bd
00000050: f4d0 103f 6ef0 1cbf b5fa 0ebf 0185 4a3f
00000060: d3ff 00bf dacf 0a3f ac1f 86be 282d 92be
00000070: 04b7 b13d 5dca 943e e7fc 173f 47e6 0a3e
00000080: f286 f7be 9bd8 dc3e 67c8 07bf 8c78 513f
00000090: 9ea0 a3bd 0091 853e e1f3 85bd 288a 0d3e
000000a0: 48b6 c7bd 4c95 15bf f057 0bbf 05eb 83be
000000b0: 9d24 b9be 6261 d33e 1756 ffbe e715 97be
000000c0: f5b2 503d d03b 76be f7b2 613f c130 b33e
000000d0: 1acc f63d b9e0 bf3e a4a6 e33e 08fb 15bf
000000e0: 01b9 283f 378b 50be 13c9 cb3e 761f 02be
000000f0: 7f2f 863d 3824 32bd bc20 58bf 96d3 b7bd
0.310812 -0.18966402 1.0887249 0.0965306 -0.3146914 0.40975907 -0.82813436 -0.12691447
-0.48495665 0.38431364 0.173808 -0.66266423 0.77124643 -0.01449126 0.32842886 0.074655876
0.059311718 0.099060886 -0.8627057 -0.035451103 0.5656884 -0.61304367 -0.558513 0.791092
-0.50390357 0.54223406 -0.2619604 -0.28550076 0.086774856 0.2906064 0.59370273 0.13564406
-0.48345143 0.43134007 -0.53040165 0.81824565 -0.0798962 0.2608719 -0.06540657 0.13822234
-0.09751564 -0.58430934 -0.54431057 -0.25765243 -0.36160746 0.41285235 -0.4987037 -0.29508898
0.050951917 -0.24046254 0.88163704 0.34998134 0.12050648 0.37476137 0.44463074 -0.5858617
0.65907294 -0.20365606 0.39801845 -0.12707314 0.06552028 -0.043491572 -0.8442495 -0.08975904

sequential/dense_1/MatMul f4 [4, 8]
00000000: 4476 a63f 2d90 93bc e0dd 4bc0 bd91 06bf
00000010: 11de 3cc0 4f1a 233f 6caf 793f 2172 503f
00000020: 5919 1fc0 5efd c83f 1de4 ab3e 06fc 2f3f
00000030: 8731 643e 39e0 86be b1c9 9ebf 7dba cebd
00000040: 97c3 6c3f 9386 e8bf a54d d13e 0d5b 7ebf
00000050: d4ec b13e 6d20 9ebe 76ff 103d e292 603f
00000060: 8f25 9bbe 2f05 20bf 2a7d fb3e 1873 9b3f
00000070: 3af3 f03e b292 58be 4d38 1e3f b8b3 9abf
1.3004842 -0.018013084 -3.1854172 -0.5256613 -2.9510539 0.6371202 0.975333 0.81424147
-2.485922 1.5702322 0.33572474 0.6874393 0.22284518 -0.26342943 -1.2405301 -0.100941636
0.92485946 -1.8166069 0.4087955 -0.9935768 0.34750998 -0.30884114 0.035399877 0.87724125
-0.30302092 -0.6250791 0.4911893 1.2144499 0.47060567 -0.2114971 0.6180466 -1.2086096
