12_tingml_gesture_predict/external_modules/gesture/model.tflite (tflite, 5984 bytes, 4 tensors)

sequential/dense_1/MatMul i1 [4, 8] scale=0.025082026 zero_point=0
000000 34 ff 81 eb 8a 19 27 20 9d 3f 0d 1b 09 f5 cf fc
       1.3042654 -0.025082026 -3.1854172 -0.52672255 -2.9596791 0.62705064 0.978199 0.8026248 -2.4831204 1.5801677 0.32606634 0.6772147 0.22573823 -0.27590227 -1.2290193 -0.1003281
000010 25 b8 10 d8 0e f4 01 23 f4 e7 14 30 13 f8 19 d0
       0.92803496 -1.8059058 0.4013124 -1.003281 0.35114837 -0.30098432 0.025082026 0.8778709 -0.30098432 -0.62705064 0.5016405 1.2039373 0.47655848 -0.2006562 0.62705064 -1.2039373

sequential/dense/MatMul i1 [8, 8] scale=0.008572636 zero_point=0
000000 24 ea 7f 0b db 30 9f f1 c7 2d 14 b3 5a fe 26 09
       0.3086149 -0.18859799 1.0887249 0.094298996 -0.31718755 0.41148654 -0.8315457 -0.12858954 -0.48864025 0.38576862 0.17145273 -0.660093 0.77153724 -0.017145272 0.3257602 0.07715373
000010 07 0c 9b fc 42 b8 bf 5c c5 3f e1 df 0a 22 45 10
       0.06000845 0.102871634 -0.86583626 -0.034290545 0.565794 -0.6172298 -0.55722135 0.7886825 -0.5057855 0.5400761 -0.26575172 -0.282897 0.085726365 0.29146963 0.5915119 0.13716218
000020 c8 32 c2 5f f7 1e f8 10 f5 bc c1 e2 d6 30 c6 de
       -0.4800676 0.4286318 -0.53150344 0.81440043 -0.07715373 0.25717908 -0.06858109 0.13716218 -0.094298996 -0.58293927 -0.5400761 -0.25717908 -0.3600507 0.41148654 -0.4972129 -0.29146963
000030 06 e4 67 29 0e 2c 34 bc 4d e8 2e f1 08 fb 9e f6
       0.051435817 -0.2400338 0.88298154 0.35147807 0.1200169 0.37719598 0.4457771 -0.58293927 0.660093 -0.20574327 0.39434126 -0.12858954 0.06858109 -0.042863183 -0.84011835 -0.085726365

sequential/conv1d_1/Conv1D i1 [8, 1, 3, 8]
000000 f6 34 f0 15 16 81 1d 1b b4 01 1c fc fd f8 0c 04
       -10 52 -16 21 22 -127 29 27 -76 1 28 -4 -3 -8 12 4
000010 a3 1e 17 12 21 21 10 30 72 a5 44 24 1d c1 08 ed
       -93 30 23 18 33 33 16 48 114 -91 68 36 29 -63 8 -19
000020 48 37 ea 1a ab 54 06 81 47 e7 55 52 be ad 16 33
       72 55 -22 26 -85 84 6 -127 71 -25 85 82 -66 -83 22 51
000030 df 8d 10 ee 8b b0 ed 16 a0 f8 16 81 19 8c f6 de
       -33 -115 16 -18 -117 -80 -19 22 -96 -8 22 -127 25 -116 -10 -34
000040 e8 ff 17 0e 0d e8 f2 35 81 4a 2a e9 d8 ee 3e fa
       -24 -1 23 14 13 -24 -14 53 -127 74 42 -23 -40 -18 62 -6
000050 1d 55 09 03 e7 04 3d 0d 20 16 e0 4c fd 19 1d 3f
       29 85 9 3 -25 4 61 13 32 22 -32 76 -3 25 29 63
000060 ad f1 4e 16 b4 02 f9 8a f6 81 44 f5 cc 45 fa 34
       -83 -15 78 22 -76 2 -7 -118 -10 -127 68 -11 -52 69 -6 52
000070 28 82 5e eb ec 29 0f 05 0d 17 15 00 07 c1 f8 e2
       40 -126 94 -21 -20 41 15 5 13 23 21 0 7 -63 -8 -30
000080 25 05 fe 13 29 81 ff 3c 94 e0 da 27 0e fe 1f f7
       37 5 -2 19 41 -127 -1 60 -108 -32 -38 39 14 -2 31 -9
000090 d9 81 2d df ff 26 2e c2 0a e9 2d 29 c2 eb 48 e8
       -39 -127 45 -33 -1 38 46 -62 10 -23 45 41 -62 -21 72 -24
0000a0 46 2b e4 c2 0f 95 f4 9c ed c8 ea 32 e7 78 2e 20
       70 43 -28 -62 15 -107 -12 -100 -19 -56 -22 50 -25 120 46 32
0000b0 4f fe 63 15 36 47 f2 fa 7f e9 27 32 df 78 51 16
       79 -2 99 21 54 71 -14 -6 127 -23 39 50 -33 120 81 22

sequential/conv1d/Conv1D i1 [8, 1, 3, 1]
000000 81 03 06 5f 81 b6 fd 7f 64 7f 00 72 81 3b ca 05
       -127 3 6 95 -127 -74 -3 127 100 127 0 114 -127 59 -54 5
000010 dd 81 7f 77 49 81 d1 45
       -35 -127 127 119 73 -127 -47 69
