12_tingml_gesture_predict/external_modules/gesture/model.tflite (tflite, 5984 bytes, 4 tensors)

sequential/dense_1/MatMul i1 [4, 8] scale=0.015941605 zero_point=0
000000 f8 81 d7 14 92 a4 4d 1a e3 f9 e4 0d fe 31 d0 0e
       -0.12753284 -2.0245838 -0.6536058 0.3188321 -1.7535765 -1.4666276 1.2275035 0.41448173 -0.46230656 -0.111591235 -0.44636494 0.20724086 -0.03188321 0.78113866 -0.76519704 0.22318247
000010 13 01 f4 dc 3a 91 fa b9 ee 00 1d 1a e6 28 eb 1c
       0.30289048 0.015941605 -0.19129926 -0.5738978 0.9246131 -1.7695181 -0.09564963 -1.1318539 -0.2869489 0.0 0.46230656 0.41448173 -0.41448173 0.6376642 -0.33477372 0.44636494

sequential/dense/MatMul i1 [8, 8] scale=0.011442456 zero_point=0
000000 c2 f8 22 17 fd cb ff d1 45 5f c0 d2 21 b3 1b 0c
       -0.7094323 -0.09153965 0.3890435 0.2631765 -0.03432737 -0.6064502 -0.011442456 -0.5377954 0.7895295 1.0870334 -0.7323172 -0.526353 0.37760106 -0.8810691 0.3089463 0.13730948
000010 17 08 0f e6 2e 10 f5 0f e7 ea 2c db cc 00 d5 1c
       0.2631765 0.09153965 0.17163685 -0.29750386 0.526353 0.1830793 -0.12586702 0.17163685 -0.2860614 -0.25173405 0.5034681 -0.4233709 -0.5950077 0.0 -0.4920256 0.3203888
000020 db 01 99 31 f5 f0 35 04 00 05 e7 d3 46 1f e6 44
       -0.4233709 0.011442456 -1.178573 0.5606804 -0.12586702 -0.1830793 0.6064502 0.045769826 0.0 0.057212282 -0.2860614 -0.5149105 0.8009719 0.35471615 -0.29750386 0.778087
000030 ee 81 65 0f 2e 1e 2d f0 05 0e 22 eb 3f 44 c5 3d
       -0.20596421 -1.453192 1.155688 0.17163685 0.526353 0.3432737 0.5149105 -0.1830793 0.057212282 0.1601944 0.3890435 -0.24029158 0.7208747 0.778087 -0.6751049 0.6979898

sequential/conv1d_1/Conv1D i1 [8, 1, 3, 8]
000000 fd 18 22 4b 30 35 3b e4 8d 41 7f 25 e0 26 34 04
       -3 24 34 75 48 53 59 -28 -115 65 127 37 -32 38 52 4
000010 d3 01 48 00 ab 00 fb d5 b2 5a 1e e0 4b e2 56 44
       -45 1 72 0 -85 0 -5 -43 -78 90 30 -32 75 -30 86 68
000020 c8 0e 39 25 1c 48 58 1d 9e 71 4d 21 02 2f 7f e1
       -56 14 57 37 28 72 88 29 -98 113 77 33 2 47 127 -31
000030 14 f3 26 0a 16 fe 01 d7 e6 fe 91 81 a7 c3 cd bb
       20 -13 38 10 22 -2 1 -41 -26 -2 -111 -127 -89 -61 -51 -69
000040 2c eb d7 19 b8 c8 fd 07 1b a1 3d 1f f6 ae c6 26
       44 -21 -41 25 -72 -56 -3 7 27 -95 61 31 -10 -82 -58 38
000050 f6 b1 e9 1b 81 4a de fd 36 bd f9 de 0a b7 b5 0e
       -10 -79 -23 27 -127 74 -34 -3 54 -67 -7 -34 10 -73 -75 14
000060 a2 10 5c 2c 73 d3 4e 1a 57 39 d8 8f 17 81 17 38
       -94 16 92 44 115 -45 78 26 87 57 -40 -113 23 -127 23 56
000070 fd f2 0e 14 c8 d6 59 f5 2f 28 91 df 98 ca 63 14
       -3 -14 14 20 -56 -42 89 -11 47 40 -111 -33 -104 -54 99 20
000080 41 0b dc a3 1d 12 81 ba e8 fe fe fc 40 0a 0d 1a
       65 11 -36 -93 29 18 -127 -70 -24 -2 -2 -4 64 10 13 26
000090 1a 81 0e ee 1e 03 a5 02 35 e5 ee 03 1b 16 0f f7
       26 -127 14 -18 30 3 -91 2 53 -27 -18 3 27 22 15 -9
0000a0 f5 ff ec 1e d6 04 c7 32 13 f1 2f e7 f6 c0 55 b6
       -11 -1 -20 30 -42 4 -57 50 19 -15 47 -25 -10 -64 85 -74
0000b0 b7 97 4e 0b 63 b8 d7 1d ec 39 47 89 6d 81 39 60
       -73 -105 78 11 99 -72 -41 29 -20 57 71 -119 109 -127 57 96

sequential/conv1d/Conv1D i1 [8, 1, 3, 1]
000000 47 81 a4 81 fc 01 6b fd 81 37 21 7f 7f ea f9 a3
       71 -127 -92 -127 -4 1 107 -3 -127 55 33 127 127 -22 -7 -93
000010 ab 81 81 03 07 f4 81 53
       -85 -127 -127 3 7 -12 -127 83
