12_tingml_gesture_predict/external_modules/gesture/model_basic.tflite (tflite, 5576 bytes, 8 tensors)

sequential/conv1d/BiasAdd/ReadVariableOp f4 [8]
0	0x3f0a1e24	0.5395224
1	0x3dd6ba27	0.104847245
2	0xbd5b1d25	-0.05349459
3	0x3e818d7e	0.25303262
4	0x3e5df968	0.21677172
5	0xbe5cf3db	-0.21577398
6	0xbe82d324	-0.25551713
7	0x3dc49b9e	0.09599994

sequential/conv1d_1/BiasAdd/ReadVariableOp f4 [8]
0	0xbf4c60c6	-0.79835165
1	0xbe74114c	-0.23834723
2	0x3e7aff9e	0.24511573
3	0x3f108689	0.56455284
4	0xbd094c9f	-0.033520337
5	0x3ec63b73	0.3871723
6	0xbe2962c7	-0.16541587
7	0xbcfdbed6	-0.030974787

sequential/conv1d/Conv1D f4 [8, 1, 3, 1]
0	0x3ea4f413	0.32217464
1	0xbf13dbb9	-0.57757145
2	0xbed5f0da	-0.41785318
3	0xbf4bdd59	-0.79634625
4	0xbcc35e93	-0.023848807
5	0x3b5df962	0.0033870568
6	0x3ebc3f08	0.3676684
7	0xbc1552de	-0.009113995
8	0xbedfe422	-0.4372874
9	0x3ed1c88c	0.40973318
10	0x3e7f27bb	0.249175
11	0x3f7313bd	0.94951993
12	0x3f3fb484	0.7488482
13	0xbe075fbc	-0.13220114
14	0xbd20b133	-0.03923149
15	0xbf13704c	-0.57593226
16	0xbf0756a3	-0.5286657
17	0xbf49b878	-0.787971
18	0xbf2927d4	-0.660764
19	0x3c83253a	0.016008962
20	0x3d1b1bd5	0.03786834
21	0xbd40aeea	-0.04704181
22	0xbef5c28c	-0.4799999
23	0x3ea16a77	0.3152654

sequential/conv1d_1/Conv1D f4 [8, 1, 3, 8]
0	0xbc7a85a9	-0.015290656
1	0x3decb9dd	0.11558888
2	0x3e26aa23	0.1627584
3	0x3eb9870e	0.3623585
4	0x3e6b2381	0.22962762
5	0x3e834f8b	0.25646624
6	0x3e916f14	0.28405058
7	0xbe0a6eb1	-0.13518788
8	0xbf0deb68	-0.55437326
9	0x3ea0546d	0.31314412
10	0x3f1cc0f8	0.61231947
11	0x3e36192b	0.17783038
12	0xbe1c48cf	-0.1526215
13	0x3e3ab7ae	0.1823413
14	0x3e7fbf76	0.2497538
15	0x3ca55845	0.020183692
16	0xbe5eb5d5	-0.21749051
17	0x3b60060e	0.0034183296
18	0x3eb08b19	0.34481123
19	0xba6dad49	-0.0009066654
20	0xbed210e6	-0.41028517
21	0xb9eb41c4	-0.00044871692
22	0xbccf7c51	-0.025327833
23	0xbe5656d6	-0.20931563
24	0xbedaf9fb	-0.42768845
25	0x3ef9e824	0.48809922
26	0x3e269eba	0.16271487
27	0xbe31be6e	-0.173578
28	0x3ed29434	0.41128695
29	0xbe264e05	-0.162407
30	0x3eef830a	0.46779662
31	0x3ebd8eb6	0.37022942
32	0xbe9ce0f0	-0.30640364
33	0x3d9c0f86	0.07620148
34	0x3e9f5594	0.31119978
35	0x3e4eb94e	0.20187876
36	0x3e1da3c2	0.153945
37	0x3ec96963	0.39338216
38	0x3ef5a240	0.4797535
39	0x3e244440	0.1604166
40	0xbf08f1c2	-0.53493893
41	0x3f1da0dd	0.6157358
42	0x3ed68f8e	0.419064
43	0x3e38099e	0.17972419
44	0x3c238798	0.009981059
45	0x3e83b78f	0.25725982
46	0x3f313b40	0.69231033
47	0xbe2bed2a	-0.1678969
48	0x3e849191	0.25892308
49	0xbe2d3c61	-0.16917564
50	0x3f012faf	0.50463384
51	0x3e034bdb	0.12821905
52	0x3e9386d1	0.28813794
53	0xbccc7b87	-0.024961246
54	0x3c9ea88e	0.019367483
55	0xbf0a322a	-0.53982794
56	0xbeb37ccd	-0.35056153
57	0xbcb9d875	-0.022686223
58	0xbfbce319	-1.4756805
59	0xbfd75ee0	-1.6825829
60	0xbf96672b	-1.1750234
61	0xbf4ecca5	-0.8078101
62	0xbf2cbaed	-0.67472726
63	0xbf6890bd	-0.90845853
64	0x3f1500a7	0.5820412
65	0xbe8fcadb	-0.28084454
66	0xbf0b07c7	-0.5430874
67	0x3ea8b65e	0.32951635
68	0xbf73c459	-0.9522148
69	0xbf3e28ba	-0.74280894
70	0xbd08a4a8	-0.033360153
71	0x3dc7c6d8	0.09754723
72	0x3e3aa504	0.18227011
73	0xbf23e33a	-0.64018595
74	0x3ed48f23	0.41515455
75	0x3e56bfd4	0.20971614
76	0xbd86686a	-0.06562884
77	0xbf0eaa43	-0.5572855
78	0xbeca1763	-0.39470968
79	0x3e827e80	0.25487137
80	0xbd8c1623	-0.0684016
81	0xbf09b593	-0.53792685
82	0xbe211642	-0.15731147
83	0x3e3dd8d4	0.18539745
84	0xbf5c23f4	-0.8599236
85	0x3f00b78c	0.5028007
86	0xbe6a51f5	-0.22882827
87	0xbc9e4b03	-0.019322878
88	0x3ebba5c6	0.36649913
89	0xbee9b396	-0.45644826
90	0xbd4d5349	-0.050128255
91	0xbe688af1	-0.22709252
92	0x3d8f2787	0.06989961
93	0xbefc4e70	-0.49278593
94	0xbf02320a	-0.50857604
95	0x3dc44b06	0.09584622
96	0xbec426c1	-0.38310817
97	0x3d8837e0	0.06651282
98	0x3ec01cc2	0.3752194
99	0x3e386587	0.1800748
100	0x3ef0b37f	0.47011945
101	0xbe3c9a76	-0.18418297
102	0x3ea26648	0.3171866
103	0x3dda270c	0.10651979
104	0x3eb4ef7d	0.35338965
105	0x3e6d3c76	0.23167595
106	0xbe288e9d	-0.16460653
107	0xbeebec2b	-0.4607862
108	0x3dbe339a	0.09287186
109	0xbf04b310	-0.5183573
110	0x3dc19e04	0.09453967
111	0x3e6c0894	0.23050147
112	0xbc3b927d	-0.0114485
113	0xbd6e42a9	-0.05816904
114	0x3d6bdc71	0.057583276
115	0x3da582ed	0.08081613
116	0xbe6b9b04	-0.23008353
117	0xbe307021	-0.17230274
118	0x3eba4911	0.3638387
119	0xbd3ac6d5	-0.045599777
120	0x3e8843a8	0.26614118
121	0x3e67a391	0.2262099
122	0xbf218e12	-0.6310741
123	0xbe430f55	-0.19048817
124	0xbf17712d	-0.5915707
125	0xbe9d662b	-0.3074201
126	0x3f0fa550	0.5611162
127	0x3dec9fa1	0.11553884
128	0x3ebd02ec	0.36916292
129	0x3d837595	0.06418911
130	0xbe525e42	-0.20543769
131	0xbf07f7de	-0.5311259
132	0x3e2a80ea	0.1665074
133	0x3dd33e72	0.10314645
134	0xbf38f2c0	-0.7224541
135	0xbecb3a3d	-0.3969287
136	0xbe0c27d1	-0.13687064
137	0xbc659ca8	-0.014014401
138	0xbc10737b	-0.008816595
139	0xbccfb651	-0.02535549
140	0x3ebb0a6f	0.36531398
141	0x3d6b081e	0.057380788
142	0x3d9b54f8	0.07584566
143	0x3e15e2e8	0.14637339
144	0x3e65ddfe	0.22447965
145	0xbf8bd0d0	-1.09231
146	0x3dfa2424	0.122139245
147	0xbe1c3e37	-0.15258108
148	0x3e83a061	0.25708297
149	0x3cd37eee	0.02581736
150	0xbf47f288	-0.7810445
151	0x3c6f1ced	0.014594299
152	0x3eeb4a4c	0.45955122
153	0xbe7100f8	-0.23535526
154	0xbe1bd3f4	-0.15217572
155	0x3cd6be73	0.02621386
156	0x3e6ddfa0	0.23229837
157	0x3e46134b	0.19343297
158	0x3e0312d5	0.12800153
159	0xbda6eb55	-0.08150355
160	0xbdc69712	-0.09696783
161	0xbc195875	-0.009359469
162	0xbe2fed41	-0.17180349
163	0x3e82be0f	0.25535628
164	0xbeba03f6	-0.36331147
165	0x3cfbfe28	0.03076084
166	0xbefb1111	-0.49036458
167	0x3ede623a	0.43434316
168	0x3daa0b7a	0.0830297
169	0xbd87c4fe	-0.0662937
170	0x3e57cfe7	0.21075402
171	0xbde360a4	-0.11102417
172	0xbd3a6428	-0.045505673
173	0xbe925c36	-0.28585976
174	0x3ec40b7f	0.3829002
175	0xbeaa8b16	-0.3330924
176	0xbea8260a	-0.32841522
177	0xbef1cd17	-0.47226784
178	0x3eb32b7b	0.3499411
179	0x3d5063d1	0.050876442
180	0x3ee3a582	0.4446221
181	0xbea4e844	-0.32208455
182	0xbe3bb9a1	-0.1833253
183	0x3e075f43	0.13219933
184	0xbdb7fa5d	-0.089833
185	0x3e81c343	0.25344285
186	0x3ea32f97	0.31872246
187	0xbf092e31	-0.5358611
188	0x3efadcea	0.4899667
189	0xbf11d142	-0.5695993
190	0x3e82051c	0.25394523
191	0x3edd2b3a	0.43197042

sequential/dense/BiasAdd/ReadVariableOp f4 [8]
0	0xbde350d8	-0.11099404
1	0xbec22584	-0.37919247
2	0xbf86d285	-1.0532995
3	0x00000000	0.0
4	0x3eb575d7	0.35441467
5	0x3eae4d5d	0.34043398
6	0x3e537a73	0.2065218
7	0xbc6dc13a	-0.014511401

sequential/dense_1/BiasAdd/ReadVariableOp f4 [4]
0	0x3f1e26fe	0.6177825
1	0x3ec5de42	0.38646132
2	0x3f264458	0.64948034
3	0xbfe9589f	-1.823017

sequential/dense/MatMul f4 [8, 8]
0	0xbf34ddf1	-0.70651156
1	0xbdb5df94	-0.08880535
2	0x3ec89c18	0.3918159
3	0x3e84a673	0.2590824
4	0xbceb36cc	-0.028712653
5	0xbf1a92be	-0.6038016
6	0xbbe39042	-0.006944687
7	0xbf08f4af	-0.5349836
8	0x3f49227a	0.7856823
9	0x3f8baf39	1.0912849
10	0xbf3bc776	-0.7335123
11	0xbf074010	-0.52832127
12	0x3ec24499	0.3794296
13	0xbf610178	-0.87892866
14	0x3e9c4124	0.30518448
15	0x3e0898c6	0.13339528
16	0x3e88e399	0.26736143
17	0x3dc53ac1	0.09630347
18	0x3e33928f	0.17536376
19	0xbe9abf91	-0.3022428
20	0x3f05da8d	0.5228661
21	0x3e3803db	0.1797022
22	0xbe02374f	-0.12716411
23	0x3e303a03	0.1720963
24	0xbe9153fb	-0.28384385
25	0xbe812b76	-0.2522847
26	0x3f006181	0.5014878
27	0xbed8b919	-0.42328718
28	0xbf186194	-0.5952389
29	0x3b36f200	0.002791524
30	0xbefc1dc3	-0.49241456
31	0x3ea4a218	0.32154918
32	0xbed9f333	-0.4256836
33	0x3c79bd7a	0.015242929
34	0xbf964e20	-1.1742592
35	0x3f10d61d	0.5657671
36	0xbe01dbbe	-0.12681481
37	0xbe3ed404	-0.18635565
38	0x3f19e655	0.60117084
39	0x3d3e7948	0.04650238
40	0x3b9bcfa2	0.0047549764
41	0x3d7871dd	0.060655463
42	0xbe921a83	-0.28535852
43	0xbf0519a4	-0.5199225
44	0x3f4dfc6e	0.804633
45	0x3eb7dfb9	0.35912874
46	0xbe98f3a7	-0.29873392
47	0x3f46336a	0.774222
48	0xbe507f07	-0.20360957
49	0xbfba0232	-1.453192
50	0x3f939251	1.1529027
51	0x3e31792c	0.1733138
52	0x3f06a19e	0.5259036
53	0x3eae122e	0.33998245
54	0x3f04e1e3	0.51907176
55	0xbe36fd8c	-0.17870158
56	0x3d5aaba5	0.05338635
57	0x3e288093	0.16455297
58	0x3ec7d172	0.39026982
59	0xbe7322ae	-0.23743698
60	0x3f3754f8	0.7161403
61	0x3f4679b3	0.7752945
62	0xbf2cb48f	-0.6746301
63	0x3f318b6f	0.69353384

sequential/dense_1/MatMul f4 [4, 8]
0	0xbe04aeca	-0.12957302
1	0xc00192c8	-2.0245838
2	0xbf27328f	-0.6531152
3	0x3ea51d2a	0.32248813
4	0xbfdfc9d4	-1.7483468
5	0xbfbb7a6d	-1.4646736
6	0x3f9c768d	1.2223679
7	0x3ed56615	0.41679445
8	0xbee98510	-0.4560933
9	0xbdf1b91e	-0.118028864
10	0xbee38619	-0.44438246
11	0x3e4d684c	0.20059317
12	0xbd10e260	-0.035372138
13	0x3f49698f	0.78676695
14	0xbf426bce	-0.75945747
15	0x3e602132	0.21887663
16	0x3e99d22c	0.3004316
17	0x3c131751	0.008977727
18	0xbe405dbd	-0.18785758
19	0xbf13018f	-0.57424253
20	0x3f6ea512	0.9322063
21	0xbfe22c7c	-1.7669826
22	0xbdcbe5d9	-0.09955949
23	0xbf91a376	-1.1378009
24	0xbe927d16	-0.28611058
25	0x3bfd3e97	0.0077284086
26	0x3eed0882	0.46295553
27	0x3ed3f40e	0.41397136
28	0xbed490ca	-0.41516715
29	0x3f237140	0.6384468
30	0xbeaf186d	-0.34198323
31	0x3ee0f5b8	0.4393747
